…
ias', 'blocks.3.mlp.fc1.weight', 'blocks.3.mlp.fc1.bias', 'blocks.3.mlp.fc2.weight', 'blocks.3.mlp.fc2.bias', 'blocks.5.mlp.fc1.weight', 'blocks.5.mlp.fc1.bias', 'blocks.5.mlp.fc2.weight', 'blocks.5.mlp.fc2.bias', 'blocks.7.mlp.fc1.weight', 'blocks.7.mlp.fc1.bias', 'blocks.7.mlp.fc2.weight', 'blocks.7.mlp.fc2.bias', 'blocks.9.mlp.fc1.weight', 'blocks.9.mlp.fc1.bias', 'blocks.9.mlp.fc2.weight', 'blocks.9.mlp.fc2.bias', 'blocks.11.mlp.fc1.weight', 'blocks.11.mlp.fc1.bias', 'blocks.11.mlp.fc2.weight', 'blocks.11.mlp.fc2.bias'])
backbone VisionTransformerMoE(
  (patch_embed): PatchEmbed(
    (proj): Conv2d(3, 384, kernel_size=(16, 16), stride=(16, 16))
  )
  (pos_drop): Dropout(p=0.0, inplace=False)
  (blocks): Sequential(
    (0): Block(
      (norm1): LayerNorm((384,), eps=1e-06, elementwise_affine=True)
      (attn): Attention(
        (qkv): Linear(in_features=384, out_features=1152, bias=True)
        (attn_drop): Dropout(p=0.0, inplace=False)
        (proj): Linear(in_features=384, out_features=384, bias=True)
        (proj_drop): Dropout(p=0.0, inplace=False)
      )
      (drop_path): Identity()
      (norm2): LayerNorm((384,), eps=1e-06, elementwise_affine=True)
      (mlp): Mlp(
        (fc1): Linear(in_features=384, out_features=1536, bias=True)
        (act): GELU(approximate='none')
        (fc2): Linear(in_features=1536, out_features=384, bias=True)
        (drop): Dropout(p=0.0, inplace=False)
      )
    )
    (1): Block(
      (norm1): LayerNorm((384,), eps=1e-06, elementwise_affine=True)
      (attn): Attention(
        (qkv): Linear(in_features=384, out_features=1152, bias=True)
        (attn_drop): Dropout(p=0.0, inplace=False)
        (proj): Linear(in_features=384, out_features=384, bias=True)
        (proj_drop): Dropout(p=0.0, inplace=False)
      )
      (drop_path): Identity()
      (norm2): LayerNorm((384,), eps=1e-06, elementwise_affine=True)
      (mlp): FMoETransformerMLP(
        (gate): ModuleList(
          (0-4): 5 x NoisyGate_VMoE(
            (softmax): Softmax(dim=1)
          )
        )
        (experts): _Expert(
          (htoh4): FMoELinear(num_expert=8, in_features=384,         out_features=384, bias=True, rank=0)
          (h4toh): FMoELinear(num_expert=8, in_features=384,         out_features=384, bias=True, rank=0)
          (activation): Sequential(
            (0): GELU(approximate='none')
            (1): Dropout(p=0.0, inplace=False)
          )
        )
      )
      (mlp_drop): Dropout(p=0.0, inplace=False)
    )
    (2): Block(
      (norm1): LayerNorm((384,), eps=1e-06, elementwise_affine=True)
      (attn): Attention(
        (qkv): Linear(in_features=384, out_features=1152, bias=True)
        (attn_drop): Dropout(p=0.0, inplace=False)
        (proj): Linear(in_features=384, out_features=384, bias=True)
        (proj_drop): Dropout(p=0.0, inplace=False)
      )
      (drop_path): Identity()
      (norm2): LayerNorm((384,), eps=1e-06, elementwise_affine=True)
      (mlp): Mlp(
        (fc1): Linear(in_features=384, out_features=1536, bias=True)
        (act): GELU(approximate='none')
        (fc2): Linear(in_features=1536, out_features=384, bias=True)
        (drop): Dropout(p=0.0, inplace=False)
      )
    )
    (3): Block(
      (norm1): LayerNorm((384,), eps=1e-06, elementwise_affine=True)
      (attn): Attention(
        (qkv): Linear(in_features=384, out_features=1152, bias=True)
        (attn_drop): Dropout(p=0.0, inplace=False)
        (proj): Linear(in_features=384, out_features=384, bias=True)
        (proj_drop): Dropout(p=0.0, inplace=False)
      )
      (drop_path): Identity()
      (norm2): LayerNorm((384,), eps=1e-06, elementwise_affine=True)
      (mlp): FMoETransformerMLP(
        (gate): ModuleList(
          (0-4): 5 x NoisyGate_VMoE(
            (softmax): Softmax(dim=1)
          )
        )
        (experts): _Expert(
          (htoh4): FMoELinear(num_expert=8, in_features=384,         out_features=384, bias=True, rank=0)
          (h4toh): FMoELinear(num_expert=8, in_features=384,         out_features=384, bias=True, rank=0)
          (activation): Sequential(
            (0): GELU(approximate='none')
            (1): Dropout(p=0.0, inplace=False)
          )
        )
      )
      (mlp_drop): Dropout(p=0.0, inplace=False)
    )
    (4): Block(
      (norm1): LayerNorm((384,), eps=1e-06, elementwise_affine=True)
      (attn): Attention(
        (qkv): Linear(in_features=384, out_features=1152, bias=True)
        (attn_drop): Dropout(p=0.0, inplace=False)
        (proj): Linear(in_features=384, out_features=384, bias=True)
        (proj_drop): Dropout(p=0.0, inplace=False)
      )
      (drop_path): Identity()
      (norm2): LayerNorm((384,), eps=1e-06, elementwise_affine=True)
      (mlp): Mlp(
        (fc1): Linear(in_features=384, out_features=1536, bias=True)
        (act): GELU(approximate='none')
        (fc2): Linear(in_features=1536, out_features=384, bias=True)
        (drop): Dropout(p=0.0, inplace=False)
      )
    )
    (5): Block(
      (norm1): LayerNorm((384,), eps=1e-06, elementwise_affine=True)
      (attn): Attention(
        (qkv): Linear(in_features=384, out_features=1152, bias=True)
        (attn_drop): Dropout(p=0.0, inplace=False)
        (proj): Linear(in_features=384, out_features=384, bias=True)
        (proj_drop): Dropout(p=0.0, inplace=False)
      )
      (drop_path): Identity()
      (norm2): LayerNorm((384,), eps=1e-06, elementwise_affine=True)
      (mlp): FMoETransformerMLP(
        (gate): ModuleList(
          (0-4): 5 x NoisyGate_VMoE(
            (softmax): Softmax(dim=1)
          )
        )
        (experts): _Expert(
          (htoh4): FMoELinear(num_expert=8, in_features=384,         out_features=384, bias=True, rank=0)
          (h4toh): FMoELinear(num_expert=8, in_features=384,         out_features=384, bias=True, rank=0)
          (activation): Sequential(
            (0): GELU(approximate='none')
            (1): Dropout(p=0.0, inplace=False)
          )
        )
      )
      (mlp_drop): Dropout(p=0.0, inplace=False)
    )
    (6): Block(
      (norm1): LayerNorm((384,), eps=1e-06, elementwise_affine=True)
      (attn): Attention(
        (qkv): Linear(in_features=384, out_features=1152, bias=True)
        (attn_drop): Dropout(p=0.0, inplace=False)
        (proj): Linear(in_features=384, out_features=384, bias=True)
        (proj_drop): Dropout(p=0.0, inplace=False)
      )
      (drop_path): Identity()
      (norm2): LayerNorm((384,), eps=1e-06, elementwise_affine=True)
      (mlp): Mlp(
        (fc1): Linear(in_features=384, out_features=1536, bias=True)
        (act): GELU(approximate='none')
        (fc2): Linear(in_features=1536, out_features=384, bias=True)
        (drop): Dropout(p=0.0, inplace=False)
      )
    )
    (7): Block(
      (norm1): LayerNorm((384,), eps=1e-06, elementwise_affine=True)
      (attn): Attention(
        (qkv): Linear(in_features=384, out_features=1152, bias=True)
        (attn_drop): Dropout(p=0.0, inplace=False)
        (proj): Linear(in_features=384, out_features=384, bias=True)
        (proj_drop): Dropout(p=0.0, inplace=False)
      )
      (drop_path): Identity()
      (norm2): LayerNorm((384,), eps=1e-06, elementwise_affine=True)
      (mlp): FMoETransformerMLP(
        (gate): ModuleList(
          (0-4): 5 x NoisyGate_VMoE(
            (softmax): Softmax(dim=1)
          )
        )
        (experts): _Expert(
          (htoh4): FMoELinear(num_expert=8, in_features=384,         out_features=384, bias=True, rank=0)
          (h4toh): FMoELinear(num_expert=8, in_features=384,         out_features=384, bias=True, rank=0)
          (activation): Sequential(
            (0): GELU(approximate='none')
            (1): Dropout(p=0.0, inplace=False)
          )
        )
      )
      (mlp_drop): Dropout(p=0.0, inplace=False)
    )
    (8): Block(
      (norm1): LayerNorm((384,), eps=1e-06, elementwise_affine=True)
      (attn): Attention(
        (qkv): Linear(in_features=384, out_features=1152, bias=True)
        (attn_drop): Dropout(p=0.0, inplace=False)
        (proj): Linear(in_features=384, out_features=384, bias=True)
        (proj_drop): Dropout(p=0.0, inplace=False)
      )
      (drop_path): Identity()
      (norm2): LayerNorm((384,), eps=1e-06, elementwise_affine=True)
      (mlp): Mlp(
        (fc1): Linear(in_features=384, out_features=1536, bias=True)
        (act): GELU(approximate='none')
        (fc2): Linear(in_features=1536, out_features=384, bias=True)
        (drop): Dropout(p=0.0, inplace=False)
      )
    )
    (9): Block(
      (norm1): LayerNorm((384,), eps=1e-06, elementwise_affine=True)
      (attn): Attention(
        (qkv): Linear(in_features=384, out_features=1152, bias=True)
        (attn_drop): Dropout(p=0.0, inplace=False)
        (proj): Linear(in_features=384, out_features=384, bias=True)
        (proj_drop): Dropout(p=0.0, inplace=False)
      )
      (drop_path): Identity()
      (norm2): LayerNorm((384,), eps=1e-06, elementwise_affine=True)
      (mlp): FMoETransformerMLP(
        (gate): ModuleList(
          (0-4): 5 x NoisyGate_VMoE(
            (softmax): Softmax(dim=1)
          )
        )
        (experts): _Expert(
          (htoh4): FMoELinear(num_expert=8, in_features=384,         out_features=384, bias=True, rank=0)
          (h4toh): FMoELinear(num_expert=8, in_features=384,         out_features=384, bias=True, rank=0)
          (activation): Sequential(
            (0): GELU(approximate='none')
            (1): Dropout(p=0.0, inplace=False)
          )
        )
      )
      (mlp_drop): Dropout(p=0.0, inplace=False)
    )
    (10): Block(
      (norm1): LayerNorm((384,), eps=1e-06, elementwise_affine=True)
      (attn): Attention(
        (qkv): Linear(in_features=384, out_features=1152, bias=True)
        (attn_drop): Dropout(p=0.0, inplace=False)
        (proj): Linear(in_features=384, out_features=384, bias=True)
        (proj_drop): Dropout(p=0.0, inplace=False)
      )
      (drop_path): Identity()
      (norm2): LayerNorm((384,), eps=1e-06, elementwise_affine=True)
      (mlp): Mlp(
        (fc1): Linear(in_features=384, out_features=1536, bias=True)
        (act): GELU(approximate='none')
        (fc2): Linear(in_features=1536, out_features=384, bias=True)
        (drop): Dropout(p=0.0, inplace=False)
      )
    )
    (11): Block(
      (norm1): LayerNorm((384,), eps=1e-06, elementwise_affine=True)
      (attn): Attention(
        (qkv): Linear(in_features=384, out_features=1152, bias=True)
        (attn_drop): Dropout(p=0.0, inplace=False)
        (proj): Linear(in_features=384, out_features=384, bias=True)
        (proj_drop): Dropout(p=0.0, inplace=False)
      )
      (drop_path): Identity()
      (norm2): LayerNorm((384,), eps=1e-06, elementwise_affine=True)
      (mlp): FMoETransformerMLP(
        (gate): ModuleList(
          (0-4): 5 x NoisyGate_VMoE(
            (softmax): Softmax(dim=1)
          )
        )
        (experts): _Expert(
          (htoh4): FMoELinear(num_expert=8, in_features=384,         out_features=384, bias=True, rank=0)
          (h4toh): FMoELinear(num_expert=8, in_features=384,         out_features=384, bias=True, rank=0)
…
isy_std0.0_lr_None/PASCALContext/VisionTransformer_moe/vit_small_patch16_224/multi_task_baseline/best_model.pth.tar', 'multi_gate': True, 'local_rank': 0, 'gpus': 2}
    in_channels: 1024
    channels: 512
    in_index: 11
    num_classes: 21
    align_corners: False
================================================================================
self.h 32 self.w 32
will consider multi level output in head False
will consider tam in heads True
head[semseg] VisionTransformerUpHead(
  input_transform=None, ignore_index=255, align_corners=False
  (dropout): Dropout2d(p=0.1, inplace=False)
  (norm): LayerNorm((384,), eps=1e-06, elementwise_affine=True)
  (conv_0): Conv2d(384, 256, kernel_size=(3, 3), stride=(1, 1), padding=(1, 1))
  (conv_1): Conv2d(256, 256, kernel_size=(3, 3), stride=(1, 1), padding=(1, 1))
  (conv_2): Conv2d(256, 256, kernel_size=(3, 3), stride=(1, 1), padding=(1, 1))
  (conv_3): Conv2d(256, 256, kernel_size=(3, 3), stride=(1, 1), padding=(1, 1))
  (conv_4): Conv2d(256, 21, kernel_size=(1, 1), stride=(1, 1))
  (syncbn_fc_0): SyncBatchNorm(256, eps=1e-05, momentum=0.1, affine=True, track_running_stats=True)
  (syncbn_fc_1): SyncBatchNorm(256, eps=1e-05, momentum=0.1, affine=True, track_running_stats=True)
  (syncbn_fc_2): SyncBatchNorm(256, eps=1e-05, momentum=0.1, affine=True, track_running_stats=True)
  (syncbn_fc_3): SyncBatchNorm(256, eps=1e-05, momentum=0.1, affine=True, track_running_stats=True)
…
